torch_model.pth (torch, 6512 bytes, 3 tensors)

linear1.weight f4 [64, 15]
00000000: 2167 69be e720 e6bc 94cb 143e f6c6 a7bd
00000010: a112 483e 5ec3 86bb 146c c03d ab8a 063e
00000020: f7d5 03be f56f 14bc 0ffd 64bd e3ff 853d
00000030: 4dc0 f1bc 5cc3 2e3e f648 5c3e ea2f 843d
00000040: af6a d1bc 9abf d4bd 1279 74bb bc4d 223e
00000050: 0661 5b3e 4d15 7c3e 7b58 943b ff66 803e
00000060: cba4 453d e50c 26be 7a7f 42be 4031 4dbe
00000070: c2af 51be f2ce 693e 9358 6e3e ff04 f3bd
00000080: 9d0d 463e 760b 133e 7f08 1fbe 96a0 3f3e
00000090: ddef 16be 42b3 523c 5118 bb3d 1e89 463c
000000a0: aa54 8bbe 800c 1938 8213 5b3e 152c 723e
000000b0: 7e8c 29be 46f6 13be 9bfc 8cbd 581b 1ebe
000000c0: ca68 fb3d a1a3 813e fdab 183c 075d 03be
000000d0: e6c4 4a3e cf54 00be 1ad8 88be f0a7 40be
000000e0: 202c 40bd 5d87 cf3d 14d0 08ba 4695 3cbe
000000f0: b74c 7bbe 3fca 713e 9e46 b03d c19b 67be
00000100: 2056 823e c889 cb3d afc5 7fbe cefe 89bd
00000110: 26c5 953d 2116 8f3c 7325 20bb 8aac c1bd
00000120: a17e 263e ea7c 9c3d 4f58 df3c c7a6 0f3e
00000130: 0bc9 843e e771 c1bc ac15 54be cbd9 12bd
00000140: f94c 393d 99f9 573e a401 d5bd 1b4b 05be
00000150: 1ccb d93d c055 44bc 9c68 a03e dc4c efbc
00000160: a0a9 843e 19fc e13d 9df8 d43d 97ad cebd
00000170: 994f 2a3e 9929 193e dbf6 2f3e d53d e0bd
00000180: 8ed1 0d3d 654e 293e 39be b73c a688 2cbd
00000190: 7d24 50be 1087 acbd bc89 843e 6f77 34be
000001a0: 29a4 053e b35a 8e3d 0df5 14bd 0792 f33d
000001b0: 4b80 e83d 1af0 84bd c705 763e ff1b 3a3e
000001c0: 0b56 c73d 428b 7ebe 7115 d43d c03d 2bbe
000001d0: 3117 2cbe 2dd7 1fbe e2ed 94bd 2f0b 73be
000001e0: e7a0 013e 83e7 063e fb5b 0dbe 0894 aabd
000001f0: 087f b9bd 0f50 11be c50e 9c3e 4611 c838
00000200: f278 42bd cdd3 0dbe 377d 46be b50a b63d
00000210: 6fe2 13be 748c 21bc 4d89 653e a82a 49be
00000220: ae7b 8bbe 3b17 a13c 0a4b 273d bb97 adbe
00000230: 66f6 833e 1e86 9bbe c2e4 873e f306 4e3e
00000240: dc64 5dbc 80ec b2bd 7362 08be b267 41be
00000250: 80ba 15be 7ccd 8ebd 795e 56bd beee a6bd
00000260: 02d2 a5bd 083a 473d f0e9 c6be 6513 7cbb
00000270: 487c 093e c89a 033d b30a 82be fb7d 89be
00000280: f7ed 5dbc 1756 4f3e 6fd7 99bd 483a 27be
00000290: bec8 60be 1c36 863e ee87 32be bdf9 02be
000002a0: 4910 4c3e 37dc 21be 740a b5bd d04a 653e
000002b0: 91a8 2fbe 891a 2dbe a6ba f73c 3e99 36bd
000002c0: 7f82 20be 36ba 8b3e ce71 fb3c 77af d53d
000002d0: d5ff 76be 2ba5 803e 7242 073c 10eb eb3d
000002e0: 309f 393e c0e9 46be b3e3 d0bd a139 d33e
000002f0: e4c1 e93d f73b a6be 0878 923c 2fa9 ab3e
00000300: 965a 55be db12 1abe f4d1 1b3e 1393 32be
00000310: a765 c9bd 3a06 2abe 19cb b4be d7ff 623e
00000320: 1ce1 1d3e dc23 b93e 7ce2 9abe e01d 573c
00000330: 46dd 8cba 364a 543d a719 7b3e a1ac 823b
00000340: 1b53 bdbd c2c9 9cbd 1e50 283e 010b 07be
00000350: 4c07 9a3e 4432 833c 9c18 32bb ad49 66ba
00000360: 8747 b3bc 0326 9bbe cfc2 113e 99b0 5f3e
00000370: 96c0 8e3d f9e3 213b 2205 6ebd 828e 26be
00000380: 5a3a 8dbd 8d74 fdbd 75cf 433e 1fa2 1cbe
00000390: 02c9 0dbb 1833 81bd fc48 41be 14e1 623d
000003a0: d4ab 053e fda3 0fbc 0380 8c3b e1e1 6ebd
000003b0: 96f9 313e 9561 853e b605 1a3e 9f8b 80be
000003c0: b623 be3d 14f9 6d3e ef92 ef3d b3bc b83d
000003d0: 859b 2f3d da85 2cbe b543 35be 0545 bbbd
000003e0: 41c0 11be ec1f 483c f035 133d 6353 27bd
000003f0: 473b 79bd b757 e4bd b5af 553d af21 c5bd
-0.22793247 -0.028091861 0.14530784 -0.08192246 0.19538356 -0.004112645 0.09395614 0.13138835
-0.1287459 -0.009059896 -0.055905398 0.06542947 -0.029510641 0.17066711 0.21512207 0.064544514
-0.025563566 -0.103881076 -0.003730361 0.15849966 0.2142373 0.246175 0.0045271493 0.2507858
0.048252862 -0.16215856 -0.18993941 -0.20038319 -0.20477203 0.2283285 0.23275976 -0.11866187
0.1934113 0.14359841 -0.15530585 0.18713602 -0.14739938 0.012860121 0.09135497 0.012117652
-0.2721303 3.6489684e-05 0.2139416 0.23649628 -0.165575 -0.14449415 -0.06884118 -0.15440118
0.12275846 0.2532015 0.009318349 -0.12828456 0.19801673 -0.12532352 -0.26727372 -0.18814063
-0.04691708 0.1013324 -0.00052189943 -0.18416318 -0.24540983 0.23612307 0.08607219 -0.22618009
0.25456333 0.09938389 -0.24977754 -0.06738053 0.07312994 0.017466607 -0.0024436384 -0.09456737
0.16259243 0.07641013 0.027263789 0.14028464 0.25934634 -0.023613883 -0.20711392 -0.035852235
0.045239422 0.21091308 -0.104007035 -0.13016932 0.10634443 -0.011983335 0.3132981 -0.029211454
0.25910664 0.11034412 0.10398982 -0.100917034 0.16631927 0.14957274 0.17184012 -0.109492935
0.034623675 0.16533811 0.022429572 -0.042122506 -0.20326419 -0.08424199 0.25886333 -0.17623685
0.13050903 0.06950893 -0.03636651 0.11893087 0.11352595 -0.06491108 0.24025641 0.18174742
0.09733208 -0.2485781 0.10355652 -0.16722775 -0.16805722 -0.15609427 -0.07271935 -0.23734735
0.12659036 0.13174252 -0.13804619 -0.08329016 -0.090574324 -0.14190696 0.30480018 9.5399606e-05
-0.047478624 -0.13850327 -0.19383703 0.08888761 -0.14441846 -0.009860147 0.22415657 -0.19645178
-0.27242798 0.019664397 0.040843047 -0.33904824 0.25773925 -0.3037576 0.26541716 0.20119838
-0.013512816 -0.08736515 -0.13318805 -0.18887213 -0.14621925 -0.06972787 -0.05233619 -0.08151005
-0.080966964 0.048639327 -0.38850355 -0.0038463708 0.13426316 0.032130033 -0.25398788 -0.26853928
-0.013545505 0.20247684 -0.07511794 -0.16330826 -0.21951577 0.26213157 -0.17434666 -0.1279058
0.19928087 -0.15806662 -0.088398844 0.2239182 -0.17154147 -0.16904654 0.030240368 -0.044579737
-0.1567478 0.27290505 0.030693915 0.10433858 -0.2412103 0.25126013 0.008255588 0.11519444
0.18127131 -0.19425106 -0.1019968 0.41254905 0.11413935 -0.32467625 0.017879501 0.33527514
-0.20835337 -0.15046255 0.1521681 -0.17438917 -0.09833842 -0.16603938 -0.353112 0.22167908
0.15417904 0.3616017 -0.3025092 0.013129681 -0.0010747097 0.051828586 0.24521504 0.003987864
-0.09244367 -0.0765567 0.16436812 -0.13187791 0.30083692 0.01601518 -0.0027175313 -0.0008784782
-0.021884693 -0.30302438 0.1423447 0.2184471 0.069703266 0.0024702533 -0.058110364 -0.162653
-0.06895895 -0.12375746 0.19122107 -0.1529622 -0.0021634703 -0.063085735 -0.18875498 0.055390432
0.13053828 -0.008767125 0.004287721 -0.058320884 0.17380366 0.26051012 0.15041241 -0.25106522
0.09284155 0.23239547 0.11697947 0.090203665 0.042872924 -0.16847935 -0.1770161 -0.09144024
-0.14233495 0.012214642 0.03594011 -0.04085101 -0.060847547 -0.11149543 0.05216952 -0.09625565

linear1.bias f4 [64]
00000000: 3c91 bf3d 6171 133e fa17 dbbd a4d6 65be
00000010: d77b a1be c182 26bd 648d 22be 9e8a 2e3e
00000020: 16a2 a5bd 7af5 f63d 458f 1a3e fca6 88be
00000030: 8300 dc3d 8de8 f1bb 8824 7c3e bf6a 4f3e
00000040: 42e2 10be 2168 173e a301 553e 9947 8abe
00000050: 05c3 de3d 8ec0 e2bb 1ddd 1cbd dfad 33be
00000060: 9a17 873d 0f17 be3d d478 62be c18e 703d
00000070: 2cc5 29bc a990 f2bd 4e75 afbd 3ea7 41be
00000080: 47c7 813e 05cb e7bd 8795 d4bd 60da 28be
00000090: ef6d 103d b8d6 183e 7305 03be 09b2 623e
000000a0: 4359 a83d e109 4a3c 9b66 163d 68f4 433e
000000b0: 4bb0 adbd 441c c2bc c93b e73d 73ca aabd
000000c0: 6bde d43c 2ae0 a93d 8c98 1ebe 5abc 24be
000000d0: f030 e9bd aa53 9c3d 84b4 d03d e929 813d
000000e0: 9ec2 6f3e c368 7b3d 1b7f bc3e 52c4 e63d
000000f0: f57c 823d 1a34 9dbd 1028 c13c 6125 583e
0.09353873 0.1439872 -0.106979325 -0.2244516 -0.31539795 -0.04065204 -0.15874249 0.17045066
-0.08087556 0.1205854 0.15093715 -0.266899 0.10742285 -0.0073824585 0.2462331 0.20255564
-0.1414881 0.14785816 0.20801406 -0.2700775 0.10877041 -0.006919927 -0.038296808 -0.17546795
0.065962985 0.09281742 -0.22116405 0.05872989 -0.010361951 -0.11843998 -0.08567296 -0.18911454
0.2534735 -0.1131802 -0.103800826 -0.16489553 0.03526109 0.14925659 -0.12795047 0.22138228
0.0822015 0.012331457 0.036718946 0.19136202 -0.08480891 -0.023695119 0.112907 -0.083393954
0.025984963 0.08294709 -0.1548788 -0.16087475 -0.11386287 0.07633145 0.101906806 0.06306822
0.23414084 0.061379205 0.36815724 0.11267914 0.0637149 -0.07675953 0.023578674 0.21108009

linear2.weight f4 [1, 64]
00000000: c642 83bd 2add 113e 7582 bd3d 00fa 273e
00000010: df66 13be a042 3b3e eb5b 343e 38dc 80bb
00000020: 9fe9 043e 6f8f fcbd 0815 05be 38f2 1ebe
00000030: 2afe ccbd 7823 373e 9613 123e 7e72 543c
00000040: ae21 a13c c08f 983d f1ce 06be e5b2 88bd
00000050: 3dce bcbd bafa 423e 279b b53e 6136 b23d
00000060: d9dd 2cbe f7d3 a13c c65b 92be d571 283e
00000070: 686c 22be a335 9dbd e697 a23d da91 73be
00000080: 7349 23bd 69a6 cabd bb46 26be acfa 683e
00000090: 611b cbbd 7b49 febd 0be1 6a3e 1c27 7e3e
000000a0: 56aa 41be 9c6e 073d 5ba1 02be 7744 5dbe
000000b0: 3f22 f93d 29ea 2cbe bda8 3abe ef84 393e
000000c0: ba9e 143e cbb2 073e 3a68 45be 8026 cf3d
000000d0: 3adf d1bd 8d7b 0abe 5222 c7bd 55c5 813e
000000e0: f3fb 5d3d 1d8c f8bd 057c 153e 8d8d f23d
000000f0: 2a37 f5bd 4ffa 3bbe e06e 3e3e aa54 723e
-0.064092204 0.14244524 0.09253398 0.16403961 -0.14394711 0.18287134 0.17613189 -0.003932502
0.12979744 -0.12332045 -0.12996304 -0.15522087 -0.100094154 0.17884624 0.14265284 0.01296675
0.01966938 0.07449293 -0.1316488 -0.066747464 -0.09219024 0.19040957 0.35469934 0.08701778
-0.16881503 0.019754393 -0.28585643 0.16449673 -0.15861666 -0.07676246 0.079391286 -0.23786107
-0.03986497 -0.098950215 -0.16237919 0.22751874 -0.099173315 -0.12416359 0.2293741 0.24819607
-0.18912634 0.03306447 -0.12756865 -0.21608149 0.12164735 -0.168862 -0.18228431 0.18117116
0.14513674 0.13251798 -0.1927804 0.10114765 -0.10247655 -0.13523693 -0.09723343 0.25345865
0.054195356 -0.121360995 0.14598091 0.11843405 -0.11973412 -0.18357204 0.18596983 0.2366511
